runs/last.ckpt (torch, 2815 bytes, 4 tensors)

W f8 [4, 4]
000000 99 a8 b7 85 b1 6c c8 bf 19 32 9a 1a 40 01 b3 bf
       -0.19081706074877472 -0.07423782968016503
000010 24 f4 9d c8 5d e4 d0 3f 99 77 c4 a6 02 5a a5 3f
       0.2639383753920035 0.04170234952674363
000020 d6 c2 25 80 68 90 c8 3f b1 80 d2 0b 91 24 c0 3f
       0.19190698868944506 0.1261159236646612
000030 aa 6d a7 41 24 dd c1 bf 92 37 e1 16 ff 58 c1 3f
       -0.13956120687258294 0.13552845589805124
000040 93 34 0e 62 53 eb ac bf 68 69 ed 46 45 3e b2 bf
       -0.05648289272276332 -0.07126267415643428
000050 76 05 14 12 b5 06 90 3f a6 ba ca b7 f8 76 d4 bf
       0.015650586346060057 -0.3197614474146725
000060 e1 74 9b 2e da 23 cf 3f 30 d8 81 3c 6c 13 c3 bf
       0.24328162456269012 -0.14903023676350946
000070 5c 47 f0 0a 22 0c cc 3f e2 2b 52 02 4d cd 8e 3f
       0.2191202691470221 0.015040017731981995

L f8 [4, 4]
000000 80 7f 41 ff e7 58 6b 37 1f ba 36 13 aa 34 7d bf
       9.810359161095548e-42 -0.007130302768401125
000010 1c f1 b7 6b d5 dc 7d bf 29 2a 2d 47 ba 82 68 bf
       -0.0072906815289537595 -0.0029920233004408115
000020 b8 d8 c4 72 04 92 b0 b7 78 fc 30 6a 9f e5 95 b7
       -1.9021863791862996e-40 -6.284120400683736e-41
000030 52 6d b6 9a ea 3c 83 3f 2e 5a 16 7c 30 c9 87 3f
       0.009393532606557873 0.0116142070644801
000040 bc 3b b7 9c 59 b1 96 b7 72 dd 77 d8 75 7a a3 b7
       -6.512506640277457e-41 -1.1180030734178119e-40
000050 20 57 9b b2 9d 17 d0 39 44 dc 80 ce 52 72 76 3f
       3.173636730574715e-30 0.00548012110089419
000060 52 76 5c d3 78 c9 a8 37 46 9a 5e f7 ff 39 ae 37
       1.42270402146332e-40 1.734919573185273e-40
000070 04 cb 98 6c 1e 1c 66 39 1b c1 30 18 08 38 73 b7
       3.4065601161005124e-32 -1.378886550459617e-41

alpha f8 []
000000 20 34 72 73 dd 71 eb bf
       -0.8576495413595957

s_log f8 []
000000 fc 23 ae 13 3c d4 07 c0
       -2.9786302125471575
